dqn_cityflow.pth (torch, 349670 bytes, 24 tensors)

network.0.weight f4 [128, 28]
0.009654561 -0.14660631 0.51372975 0.22972071 0.53691804 -1.1789073 -1.2201511 -0.029828677
-0.019396678 0.49841192 0.15426323 0.6684782 -1.0534194 -1.2118518 -0.21407741 -0.08369403
-0.43687966 -0.031072928 -0.11431781 -1.3732082 -1.2779517 -0.030418774 0.03266553 -0.25106773
-0.26267007 -0.09953148 -1.4214239 -1.3452226 -1.0022582 -0.17615047 0.06552423 0.11521429
-0.04173364 0.29879057 0.45157754 -0.36016846 -0.6191921 -0.52787894 -0.011950036 0.025248284
-0.007967731 0.26235864 -0.08714412 -0.071015045 0.52741665 -0.37596673 -0.1354429 0.34752768
0.46441132 -0.17692928 0.053066105 0.22254077 0.3828276 -0.48753205 0.28522137 0.33667448
0.068699256 0.006614745 -0.3445292 -0.2283997 0.029982997 -0.36769384 -0.8183449 0.028014239
0.08313574 -0.46241307 0.17719139 -0.38396907 -0.27512872 -1.0465294 -0.29508027 -0.22357835
0.2930818 0.02250636 -0.007149702 -0.29904136 -0.8031618 -0.24393618 -0.12532614 -0.13834544
-0.00396232 0.25261742 -0.23048429 -0.7736951 -0.37474248 0.07215113 0.043085925 -0.075053215
-0.6222087 1.138843 0.20209269 -0.030631807 -0.21620266 -0.083708584 -0.037543166 -0.27686742
0.5035423 1.1165501 -0.1931981 0.12534712 -0.7586 0.0621917 -0.20531176 0.25337318
0.90877956 -0.34587726 -0.004438838 -0.45106983 -0.34562784 -0.24264611 1.0504138 0.39486203
-0.18774156 -0.1374972 -0.025450895 0.09981177 -0.1299729 0.1677855 -0.025765076 0.022437671
0.087180056 -0.123199284 -0.08180499 -0.14694746 0.052581012 -0.12401729 -0.14104636 -0.105080225
0.18860525 0.07611185 0.037513364 -0.09373948 0.02228137 0.009203565 -0.02216591 -0.070065044
-0.11930324 -0.014369539 -0.04090353 -0.06374446 -0.0674558 -0.1704614 0.4103548 -0.22737592
-0.6101528 -0.4003319 -0.3763463 0.17010958 0.08089769 -0.21914217 0.047474038 0.030446904
-0.24593896 -0.12805006 -0.16222554 0.041401275 0.11686254 0.08831959 -0.41168937 -0.51304764
0.016473705 -0.17802592 -0.23153764 -0.034454286 0.12003071 -0.2192828 0.10145145 -0.630036
-0.15173347 -0.01344729 -0.16524339 -0.008133738 -0.023001986 0.11618969 -0.011766897 -0.17295055
0.024446905 -0.07968137 -0.15900584 0.047415894 -0.092194155 -0.14409919 -0.21647938 0.037136603
-0.06385789 -0.13433236 0.04972073 -0.21506238 -0.076303 -0.12135394 -0.08981766 0.071655646
-0.17194773 -0.16269022 -0.24879922 -0.18863603 -0.067517124 -0.1889989 -0.111879654 -0.21082838
-0.12621488 0.14960659 -0.10954107 -0.061295982 -0.24407773 0.12102688 -0.1591022 -0.15018576
0.056477644 -0.2783453 -0.025215108 -0.19760923 -0.103540994 0.10466815 -0.063943386 -0.18294263
0.032430723 -0.035443433 -0.18693513 0.05505161 -0.15440387 -0.03468515 -0.2613726 0.06592723
-0.11253698 0.020429228 0.25122884 -0.4295191 -0.27205276 0.44414854 -0.83637995 -0.11880554
-0.16543356 0.09193454 0.06548963 -0.6652786 -0.15277632 -0.31014663 -0.2995531 -0.022961527
-0.13204467 0.36975393 -0.71271294 -0.24898537 -0.06153603 -0.24927902 -0.012118558 -0.44315463
-0.3152642 0.42057478 -0.29072607 -0.24707244 0.2640959 -0.29596817 -0.1539749 -0.68350536
00000000: 2a2e 1e3c f71f 16be cb83 033f e83b 6b3e
00000010: 7673 093f 6fe6 96bf e92d 9cbf 455b f4bc
00000020: c8e5 9ebc d92f ff3e 2ef7 1d3e 6321 2b3f
00000030: 72d6 86bf f61d 9bbf 1c37 5bbe c767 abbd
00000040: b1ae dfbe a78c febc 751f eabd 49c5 afbf
00000050: ec93 a3bf cb30 f9bc 4acc 053d f38b 80be
00000060: b17c 86be 29d7 cbbd 38f1 b5bf 4130 acbf
00000070: ff49 80bf ca60 34be 9131 863d 78f5 eb3d
00000080: e5f0 2abd 14fb 983e 2c35 e73e 0068 b8be
00000090: 6083 1ebf 1323 07bf 15ca 43bc 7dd5 ce3c
000000a0: 168b 02bc df53 863e 9e78 b2bd 5670 91bd
000000b0: c704 073f b67e c0be 8bb1 0abe 26ef b13e
000000c0: 52c7 ed3e f32c 35be d85b 593d bae1 633e
000000d0: fb01 c43e cd9d f9be 8908 923e 9960 ac3e
000000e0: 32b2 8c3d 81c0 d83b 2266 b0be 9ce1 69be
000000f0: e79e f53c 5e42 bcbe 0d7f 51bf 1e7e e53c
00000100: 1243 aa3d 68c1 ecbe a971 353e 9897 c4be
00000110: acdd 8cbe adf4 85bf c314 97be b9f1 64be
00000120: d10e 963e 425f b83c 0c48 eabb f31b 99be
00000130: 039c 4dbf 68ca 79be 7f55 00be 6daa 0dbe
00000140: 59d6 81bb 1257 813e 1304 6cbe e210 46bf
00000150: 3fde bfbe f9c3 933d de7a 303d 80b5 99bd
00000160: 1249 1fbf 9cc5 913f 63f1 4e3e 8eef fabc
00000170: 3b64 5dbe 686f abbd ddc6 19bd 91c1 8dbe
00000180: 26e8 003f 1deb 8e3f b9d5 45be ff5a 003e
00000190: 9c33 42bf b9bc 7e3d 3f3d 52be 21ba 813e
000001a0: c7a5 683f d316 b1be ac73 91bb a0f2 e6be
000001b0: 22f6 b0be 3978 78be f673 863f 5b2b ca3e
000001c0: 533f 40be 11cc 0cbe 657e d0bc 1d6a cc3d
000001d0: 9e17 05be f6cf 2b3e 4811 d3bc 35cf b73c
000001e0: 758b b23d e84f fcbd 6089 a7bd 6579 16be
000001f0: 305f 573d c7fc fdbd 756e 10be 4d34 d7bd
00000200: bc21 413e 88e0 9b3d 9da7 193d 7cfa bfbd
00000210: 6b87 b63c 8dca 163c 4895 b5bc 437e 8fbd
00000220: 4255 f4bd 376e 6bbc 768a 27bd 758c 82bd
00000230: 4426 8abd 6f8d 2ebe 061a d23e 3cd5 68be
00000240: f932 1cbf 4ef8 ccbe 76b0 c0be 3531 2e3e
00000250: b0ad a53d ce66 60be 2374 423d c96b f93c
00000260: 6cd7 7bbe 8e1f 03be 741e 26be 6294 293d
00000270: a155 ef3d e7e0 b43d f3c8 d2be 1757 03bf
00000280: ddf3 863c 6d4c 36be 3418 6dbe f01f 0dbd
00000290: a9d2 f53d ac8b 60be c7c5 cf3d 0a4a 21bf
000002a0: 0560 1bbe 0652 5cbc 9035 29be 5f43 05bc
000002b0: a96e bcbc dcf4 ed3d f1c9 40bc f319 31be
000002c0: e044 c83c fc2f a3bd 6dd2 22be 2b37 423d
000002d0: 4ad0 bcbd bd8e 13be c5ac 5dbe 8d1c 183d
000002e0: edc7 82bd 6c8e 09be f7a7 4b3d 5039 5cbe
000002f0: bf44 9cbd 6a88 f8bd 52f2 b7bd 32c0 923d
00000300: 1113 30be 4498 26be 39c5 7ebe ce29 41be
00000310: 6b46 8abd ed88 41be 2921 e5bd 65e3 57be
00000320: 793e 01be 7832 193e 1257 e0bd 7f11 7bbd
00000330: 83ef 79be f1dc f73d b0eb 22be 4cca 19be
00000340: 1a55 673d 4683 8ebe ea8f cebc 135a 4abe
00000350: 4d0d d4bd 415c d63d c0f4 82bd 5055 3bbe
00000360: 14d6 043d 222d 11bd ec6b 3fbe cc7d 613d
00000370: 0c1c 1ebe 0412 0ebd a1d2 85be db04 873d
00000380: ca79 e6bd 325b a73c 11a1 803e ede9 dbbe
00000390: 804a 8bbe 7067 e33e ff1c 56bf 5250 f3bd
000003a0: 6a67 29be 2d48 bc3d 6d1f 863d b34f 2abf
000003b0: 6571 1cbe 8acb 9ebe 065f 99be d019 bcbc
000003c0: b836 07be 6350 bd3e 5b74 36bf 05f6 7ebe
000003d0: 340d 7cbd 0043 7fbe eb8c 46bc 2ae5 e2be
000003e0: 4f6a a1be 9455 d73e 0cda 94be 8f00 7dbe
000003f0: 9437 873e 2489 97be 99ab 1dbe 35fa 2ebf

network.0.bias f4 [128]
-1.2757412 -0.12496311 -0.7067931 0.2548038 -0.12421601 -0.47122434 0.6464623 -0.18235824
-0.108522736 0.29976216 -0.14107649 0.7019474 2.8663335 -0.093008935 2.8690429 -1.2447481
-0.002977101 -0.8336496 0.007975197 -0.12660457 0.6081471 -0.9003567 -0.1496339 0.12216862
1.1254851 -0.22549404 -0.42755684 0.9549619 2.7835886 1.3333708 -1.259798 -0.059358176
1.2182517 1.2166488 1.3438917 -1.3896048 -0.0030507133 -0.036230322 -0.072550856 -0.0993741
-0.024181118 -0.4001341 -1.4615015 -0.5022984 -0.6159571 -0.07416542 0.0046201516 1.1153309
-0.9860653 -1.3348917 2.4164603 -0.23136617 0.05538087 1.0372305 2.6734848 1.513584
1.594032 -1.0793409 2.9046655 -0.24208993 -1.1812546 -0.8706995 -0.2781617 2.3798478
-0.61032456 -0.0024837973 1.266417 -0.34446862 -1.583031 -0.0844735 0.6224805 -0.45939732
2.2245648 2.5510893 -0.24969651 -0.055254456 -0.21011128 -0.07287601 3.3212836 0.2708496
1.08823 -0.14456427 -0.3018659 -0.42605373 -0.20922905 -0.0349664 -1.0871408 1.1903191
0.81935346 -0.38169715 0.7230788 -0.6402956 -0.22516657 -0.041122377 -0.084964454 -0.17151824
2.1093607 -0.042786226 -0.79616 -1.1929815 0.909128 -0.34854314 1.298319 -0.4373911
-1.559568 -0.4609701 -0.085101955 2.3315809 -0.004956644 -1.0011283 -0.35496694 -0.11588499
-1.5225141 0.6975305 -0.4051513 -0.30155247 -0.51277953 -0.18884851 -1.2513502 -0.00062938087
-0.34528673 -0.37504366 -0.12986907 0.19615038 0.81677806 -0.10277791 -1.390671 -0.032926936
00000000: 7d4b a3bf a9ec ffbd 65f0 34bf a575 823e
00000010: f764 febd 5144 f1be 8e7e 253f 1ebc 3abe
00000020: 2b41 debd 6d7a 993e 5b76 10be d3b2 333f
00000030: 0272 3740 787b bebd 669e 3740 e853 9fbf
00000040: 771b 43bb 0f6a 55bf 67aa 023c a1a4 01be
00000050: 87af 1b3f c77d 66bf a139 19be 8b33 fa3d
00000060: e50f 903f e9e7 66be bbe8 dabe 6278 743f
00000070: 5126 3240 e5ab aa3f 1041 a1bf 8f21 73bd
00000080: acef 9b3f 26bb 9b3f a504 ac3f 92de b1bf
00000090: 7aee 47bb 3f66 14bd 8b95 94bd a684 cbbd
000000a0: 7b17 c6bc 60de ccbe 7b12 bbbf a196 00bf
000000b0: 5daf 1dbf 0ae4 97bd a464 973b 2ac3 8e3f
000000c0: c76e 7cbf bbdd aabf 49a7 1a40 41eb 6cbe
000000d0: 0dd7 623d f8c3 843f 601a 2b40 1fbd c13f
000000e0: 3e09 cc3f d827 8abf 0ae6 3940 6ce6 77be
000000f0: 5a33 97bf 2ae6 5ebf 366b 8ebe 6d4f 1840
00000100: 3b3e 1cbf 34c7 22bb f419 a23f 315e b0be
00000110: c3a0 cabf 7100 adbd e25a 1f3f 2036 ebbe
00000120: 455f 0e40 0c45 2340 71b0 7fbe 7f52 62bd
00000130: 6927 57be 0440 95bd e98f 5440 ccac 8a3e
00000140: 1f4b 8b3f a808 14be 2b8e 9abe b723 dabe
00000150: 2440 56be ee38 0fbd 6e27 8bbf 605c 983f
00000160: 26c1 513f cf6d c3be b11b 393f 6aea 23bf
00000170: 1192 66be f06f 28bd d801 aebd 7aa2 2fbe
00000180: c4ff 0640 9c40 2fbd 24d1 4bbf 9eb3 98bf
00000190: 9dbc 683f 3f74 b2be 512f a63f baf1 dfbe
000001a0: ed9f c7bf 4604 ecbe ef49 aebd 9f38 1540
000001b0: 586b a2bb f924 80bf 3abe b5be 1c55 edbd
000001c0: bee1 c2bf 5c91 323f fe6f cfbe 1665 9abe
000001d0: 8545 03bf 8161 41be 3e2c a0bf 09fd 24ba
000001e0: 6cc9 b0be b905 c0be 66fc 04be a5db 483e
000001f0: 5e18 513f 3a7d d2bd 8201 b2bf 65de 06bd

network.2.weight f4 [128, 128]
-1.7629161 -0.12513657 -0.2400233 -0.1479907 -0.067963794 -0.22419837 -0.9357846 -0.045702364
0.55687517 -0.15154469 0.055866607 -0.8416937 1.4142178 0.42017367 1.4541851 -0.083719715
-0.3327684 -0.46527106 -0.34292582 -0.48282185 -0.78664345 0.29255247 -0.012752043 -0.7227994
0.32475704 -0.27607304 -0.27467778 -0.12521219 1.7044803 -0.09114187 0.10689647 0.052503098
-0.0037996916 0.10654668 0.08739612 -0.2358189 -0.24125262 -0.18331748 -0.108710326 0.17700936
-0.012568163 -0.00034635334 -0.86844397 -0.35723495 0.0067501343 -0.0056654294 0.23453686 -0.06298077
-0.032412276 -0.416073 -0.69032854 0.046815727 -0.6044013 -0.0071042962 0.67133886 0.06509018
0.22119074 -0.10636689 1.2879777 0.23596495 -0.5842659 -0.17708875 0.20090017 1.1264504
-0.8935949 -0.5673195 -0.14992891 -1.2781546 0.1892554 0.03401383 -1.0649794 0.04689819
0.5872144 1.1059617 -0.19887778 -0.002123843 -0.0051037697 -0.09791327 1.6525599 0.27551907
-0.774083 -0.34545466 -0.20789818 -0.16014272 -0.031593528 -0.14221513 0.05585787 0.0027895386
-0.53948057 -0.5387956 0.16575241 -0.12380317 0.3057425 0.32651147 -0.07966608 -0.08675347
1.1246442 -0.028989445 0.69427276 -0.62127715 -0.10862397 -0.017610539 -0.068849474 0.8202061
-0.77773935 -0.1682004 -0.012311426 0.6674815 0.13693273 0.009916119 -1.1602132 -0.36799923
-0.7129964 -0.2741016 0.13960278 -1.0121598 0.15656573 0.06424391 -0.64479464 0.5392001
0.5520402 -0.08626801 -1.0937842 -0.51461935 -0.08170238 -0.07348087 -1.1429281 -0.037602354
0.24154244 0.11574054 -0.36950174 0.27030584 0.020931778 -0.00196551 0.6280679 -0.056725316
0.36173564 0.06627501 0.043042228 0.6605728 0.33752966 0.7803248 0.3229418 -0.113599785
0.7593919 0.043884967 -0.3896416 0.45906276 0.6275119 -0.03468402 0.041928038 -0.277154
0.19270688 -0.16454521 0.12878354 -0.22951141 0.70839155 0.07839661 0.15276524 -0.082191296
-0.12534052 0.0066590407 -1.4199742 -0.087595694 0.056359258 0.022895457 0.033843428 -0.034830727
-0.093429856 -0.10761876 0.03997576 0.28470004 -0.8810856 0.1349139 -0.5194183 0.5499075
0.24431485 0.5233699 0.02897031 -0.020787574 -0.058829617 -0.38280213 -0.005166654 -0.23407342
0.38875446 0.120751284 0.33162057 -0.46183527 0.10198739 -0.4265684 -0.043064915 -0.05824326
0.08237144 -0.19084857 -0.08789622 -1.168034 0.22677167 0.04724154 0.41451898 -0.2361369
0.52037203 0.7884948 -0.6447523 0.0649039 0.07237026 -0.024020175 0.74379945 0.030738266
-0.7701028 -0.34954202 -0.46818352 -0.06098644 0.008008715 -0.014504189 0.19396764 0.16660045
-0.093519345 0.07735125 0.25919607 -0.34905216 -0.14488891 -0.38177848 -0.0159188 0.048387963
0.31478712 0.03362035 0.09654078 0.20284538 -0.17181131 -0.03526794 0.48968387 0.35427496
-0.024499264 -0.007679026 -0.04986851 0.3707112 0.26710865 0.102024935 -0.09815383 0.18267004
-0.41314742 -0.09503185 -0.21304023 0.4198102 -0.09425985 -0.03307186 0.43765953 0.67920566
0.3771195 0.25881445 0.28383145 -0.019146103 -2.507639 0.17626323 0.27209717 0.06733709
00000000: 3ca7 e1bf cd23 00be abc8 75be e08a 17be
00000010: 9a30 8bbd 4294 65be 948f 6fbf 6732 3bbd
00000020: 5f8f 0e3f 882e 1bbe 62d4 643d 3d79 57bf
00000030: 1705 b53f 0121 d73e bd22 ba3f 3e75 abbd
00000040: 9f60 aabe 0238 eebe f993 afbe 6d34 f7be
00000050: 7761 49bf 70c9 953e f2ed 50bc 6209 39bf
00000060: 8e46 a63e 7259 8dbe 91a2 8cbe a037 00be
00000070: 692c da3f 97a8 babd 89ec da3d 7d0d 573d
00000080: 3f04 79bb 2535 da3d bdfc b23d 827a 71be
00000090: ed0a 77be 94b7 3bbe 85a3 debd f141 353e
000000a0: b2ea 4dbc c296 b5b9 5852 5ebf 80e7 b6be
000000b0: 3b30 dd3b 11a5 b9bb 6e2a 703e 10fc 80bd
000000c0: bcc2 04bd 8507 d5be 5fb9 30bf d9c1 3f3d
000000d0: 0bba 1abf 28cb e8bb dddc 2b3f 004e 853d
000000e0: d37f 623e e2d6 d9bd 74dc a43f cca0 713e
000000f0: 7392 15bf c156 35be c6b8 4d3e 872f 903f
00000100: a3c2 64bf da3b 11bf f786 19be 929a a3bf
00000110: 2bcc 413e 1652 0b3d 3f51 88bf 5118 403d
00000120: af53 163f 2790 8d3f 9ea6 4bbe 2c30 0bbb
00000130: 863d a7bb c186 c8bd 1587 d33f d610 8d3e
00000140: 4e2a 46bf 6fdf b0be 43e3 54be 74fc 23be
00000150: 3768 01bd d8a0 11be 39cb 643d b1d0 363b
00000160: 661b 0abf 82ee 09bf 00bb 293e 848c fdbd
00000170: 488a 9c3e 832c a73e f827 a3bd ceab b1bd
00000180: 57f4 8f3f 467b edbc dcbb 313f 050c 1fbf
00000190: 3e76 debd fa43 90bc f400 8dbd 07f9 513f
000001a0: ed19 47bf ba3c 2cbe ddb5 49bc 11e0 2a3f
000001b0: 1838 0c3e 3877 223c de81 94bf 656a bcbe
000001c0: ef86 36bf 0b57 8cbe 08f4 0e3e 748e 81bf
000001d0: c452 203e 5092 833d 4311 25bf 0509 0a3f
000001e0: 8252 0d3f 48ad b0bd 1f01 8cbf 18be 03bf
000001f0: 9453 a7bd 237d 96bd 784b 92bf ed04 1abd
00000200: e756 773e 6009 ed3d 552f bdbe 8765 8a3e
00000210: 1f79 ab3c c9cf 00bb 0fc9 203f ce58 68bd
00000220: 6a35 b93e 31bb 873d 0c4d 303d 4d1b 293f
00000230: b0d0 ac3e 5ec3 473f a158 a53e 01a7 e8bd
00000240: 8267 423f b9c0 333d 1b7f c7be 460a eb3e
00000250: 9fa4 203f d510 0ebd bcbc 2b3d 21e7 8dbe
00000260: f454 453e 8a7e 28be d5df 033e 0a05 6bbe
00000270: 2659 353f 678e a03d 7e6e 1c3e e953 a8bd
00000280: 4459 00be 1534 da3b b7c1 b5bf 5f65 b3bd
00000290: f7d8 663d 418f bb3c 689f 0a3d aaaa 0ebd
000002a0: 2758 bfbd 3967 dcbd 9fbd 233d 34c4 913e
000002b0: d38e 61bf df26 0a3e 99f8 04bf bdc6 0c3f
000002c0: ac2d 7a3e 92fb 053f 2553 ed3c b44a aabc
000002d0: 53f7 70bd a4fe c3be 094d a9bb f1b0 6fbe
000002e0: d30a c73e 734c f73d 2cca a93e ac75 ecbe
000002f0: c4de d03d 2c67 dabe d664 30bd 7c90 6ebd
00000300: 5cb2 a83d cf6d 43be ef02 b4bd 2382 95bf
00000310: d536 683e 5880 413d d53b d43e dfcd 71be
00000320: 1a37 053f ccda 493f 7d0e 25bf 56ec 843d
00000330: dc36 943d f5c5 c4bc a469 3e3f d1ce fb3c
00000340: 7525 45bf 2cf7 b2be c0b5 efbe ebcc 79bd
00000350: fc36 033c faa2 6dbc 749f 463e 4f99 2a3e
00000360: 1287 bfbd 556a 9e3d 59b5 843e f7b6 b2be
00000370: c25d 14be 7878 c3be 2568 82bc 7532 463d
00000380: c72b a13e 7eb5 093d 2cb7 c53d b3b6 4f3e
00000390: 4eef 2fbe 1e75 10bd d8b7 fa3e 8763 b53e
000003a0: aeb2 c8bc 57a0 fbbb ec42 4cbd dccd bd3e
000003b0: 77c2 883e 73f2 d03d e004 c9bd db0d 3b3e
000003c0: 0f88 d3be 0fa0 c2bd 3827 5abe 5df1 d63e
000003d0: 4f0b c1bd 5c76 07bd e914 e03e 6ce0 2d3f
000003e0: cf15 c13e 5483 843e 5b52 913e 4ad8 9cbc
000003f0: 287d 20c0 597e 343e 5250 8b3e 07e8 893d

network.2.bias f4 [128]
0.9652193 -1.3069761 0.92798036 -0.76169103 -0.646849 1.1610924 0.6090887 -0.104004875
0.8403117 1.0525937 -0.09364771 1.998248 -0.7322111 0.88566864 -0.5480165 0.6947173
-0.97358304 1.3955696 -0.25394723 -0.022923872 1.1477829 1.2873908 -0.10102646 -0.30794188
-0.5827803 -0.1498419 0.020999761 0.9945861 -0.016201517 1.0475605 0.7785933 -0.101204
-0.39776966 1.6926217 0.38044214 -0.9472421 1.215547 1.3399688 -0.13644336 -0.72832274
2.0007362 0.7356829 0.5925895 -0.07032445 0.059150446 -0.037631646 0.839108 0.3771965
1.6928769 -0.51019096 0.48914573 1.3451116 0.84835744 1.1164205 -0.6113597 -0.82491815
-0.10802807 -0.064234585 -0.0642794 0.34324458 -0.68188757 -0.17203513 0.6506689 1.1250429
-0.5102026 -0.015004245 -0.9769775 -0.08281119 -0.67743266 -0.3754584 -0.38300705 1.2360805
-0.004566868 0.7670223 -0.09495009 -0.6490347 -0.4970092 0.44234392 1.1339546 2.0682833
1.2886324 -0.0055734 -1.2745664 0.90871304 1.0651572 -0.19983801 1.3993486 0.019886317
-0.62493163 -0.07221324 -1.0796142 -0.09819545 -1.2180313 1.5855088 -1.2124017 0.6193207
0.025145454 -0.10227776 -0.7991525 -0.7017431 -0.5862423 -0.6524314 -0.09965763 -0.13369413
-0.112343065 0.604112 0.31874406 0.3787977 -0.54704267 0.59560055 -0.09218614 -1.3396963
0.901915 1.1458813 1.1411756 -0.079079196 -0.109061055 -1.2446613 1.8074464 0.23444621
-0.2654094 2.4825416 0.6224329 -0.08427622 1.9249887 -0.05492009 0.93101364 0.002030633
00000000: 9d18 773f fe4a a7bf 1f90 6d3f 2ffe 42bf
00000010: e597 25bf ad9e 943f 3ded 1b3f 8200 d5bd
00000020: ab1e 573f 64bb 863f 5fca bfbd 97c6 ff3f
00000030: 3072 3bbf 2ebb 623f cf4a 0cbf fed8 313f
00000040: bd3c 79bf 06a2 b23f 5f05 82be d8ca bbbc
00000050: 8dea 923f 39c9 a43f f6e6 cebd 8faa 9dbe
00000060: 1731 15bf 2870 19be b107 ac3c 329d 7e3f
00000070: 0bb9 84bc 7616 863f e451 473f 0b44 cfbd
00000080: 77a8 cbbe d4a7 d83f 50c9 c23e 757e 72bf
00000090: 0b97 9b3f 1984 ab3f cfb7 0bbe 5c73 3abf
000000a0: 100c 0040 b755 3c3f f2b3 173f 4406 90bd
000000b0: bd47 723d a423 1abd c8cf 563f e61f c13e
000000c0: 31b0 d83f e09b 02bf 4f71 fa3e 9e2c ac3f
000000d0: f42d 593f dee6 8e3f 1282 1cbf d62d 53bf
000000e0: d23d ddbd 6c8d 83bd eba4 83bd c1bd af3e
000000f0: 2f90 2ebf fa29 30be 3d92 263f 6801 903f
00000100: a39c 02bf 5dd4 75bc 331b 7abf ea98 a9bd
00000110: 3a6c 2dbf 153c c0be 8019 c4be e337 9e3f
00000120: aaa5 95bb 935b 443f 3175 c2bd 2327 26bf
00000130: fd77 febe e77a e23e 6d25 913f c15e 0440
00000140: e8f1 a43f 11a1 b6bb fe24 a3bf 6ba1 683f
00000150: 1257 883f 56a2 4cbe db1d b33f a1e8 a23c
00000160: 85fb 1fbf 89e4 93bd cc30 8abf b21a c9bd
00000170: 73e8 9bbf f4f1 ca3f fb2f 9bbf cd8b 1e3f
00000180: d7fd cd3c 0177 d1bd 4295 4cbf 70a5 33bf
00000190: fa13 16bf bf05 27bf 4d19 ccbd 1de7 08be
000001a0: 1f14 e6bd 16a7 1a3f 6c32 a33e c6f1 c13e
000001b0: fd0a 0cbf 4779 183f 16cc bcbd 2b7b abbf
000001c0: e7e3 663f 3dac 923f 0b12 923f 46f4 a1bd
000001d0: 675b dfbd 1051 9fbf 675a e73f ab12 703e
000001e0: bee3 87be f6e1 1e40 c357 1f3f 0399 acbd
000001f0: 0866 f63f e3f3 60bd e956 6e3f 5e14 053b

network.4.weight f4 [8, 128]
-0.021779291 0.16095594 -0.41233927 0.40278727 0.44335434 0.07845004 -0.34039885 -0.08469909
0.046488196 -0.04665494 -0.07206926 -0.30540794 -0.585529 -0.45353502 0.14669608 -0.09959048
0.2543672 -0.34291294 0.12637691 -0.056999043 -0.091734864 0.07871618 -0.018932316 0.36493275
0.31714162 0.023443336 0.03607816 -0.27740937 -0.0155208595 -0.23868011 -0.17966041 -0.029307758
0.19146027 -0.3738971 -0.14968684 0.28132904 0.067239285 -0.16051292 -0.06640038 -0.38449562
-0.6040451 -0.016598025 -0.091630295 0.045500834 -0.04039172 -0.06185803 -0.16920047 0.35180414
-0.56439286 0.48546925 -0.32459304 -0.37631184 -0.15812133 -0.39441285 0.22162133 -0.2452915
-0.04164422 0.0236315 -0.051173393 -0.4722484 -0.010834874 0.47277847 0.61984056 -0.7296268
-0.21742047 0.056085385 0.2617922 0.072037615 0.047483746 0.025343355 -0.1823333 -0.09314349
0.023940433 0.35347587 -0.08820372 -0.05116285 0.060948145 -0.19747722 0.37892944 -0.5031121
-0.35294005 -0.008415058 0.093307205 -0.015774786 -0.036249474 0.06856773 0.27814797 0.012618636
0.13817602 -0.07294373 -0.32188562 -0.016160326 0.15667216 -0.32562676 0.56867373 -0.33237657
-0.0016890146 0.33540586 0.7090315 -0.0039275917 0.6132433 0.18086685 -0.0017667915 -0.017889954
-0.05134645 -0.17412043 -0.23201329 0.26834598 -0.06833408 0.056773532 0.0294355 0.14041711
-0.18786594 -0.3369098 -0.39921266 0.052431207 0.0048246128 0.87137836 -0.253584 0.22559449
-0.13197096 -0.7807534 -0.25572282 -0.0046164724 -0.34587348 -0.01687136 -0.32130548 -0.040758647
-0.18295553 0.161797 -0.26408356 0.51038563 0.19604538 -0.29791704 -0.031168768 -0.039046843
0.29904217 -0.21376865 -0.1051748 -0.21795852 0.091917664 -0.14186013 0.15617989 0.49303588
0.2375581 -0.39527977 0.42721456 0.06186734 -0.19627424 -0.070592664 0.038397625 -0.02919947
0.27293092 0.29567418 0.06575711 -0.4109947 0.086331405 -0.22149864 -0.27950767 -0.027682053
0.34786573 -0.45249742 -0.3137351 0.1609427 -0.17023464 -0.19237836 -0.05391542 0.025971184
-0.2257581 -0.03873548 -0.34925672 -0.002662503 0.0439763 -0.031159341 -0.29582268 0.21362862
-0.64112264 0.6752916 -0.31579775 -0.0299715 -0.40281925 -0.44223684 -0.07419821 0.16399167
0.06663601 -0.047025815 0.030717455 -0.1772664 0.4074216 0.3840411 -0.21187177 -0.49128667
0.21286249 -0.0042713303 0.18402646 0.0039932467 -0.031287454 0.42975262 0.122932285 -0.21338883
-0.05333069 0.3300289 0.0038583016 0.52033347 0.4047713 -0.17101075 0.02996502 -0.41264036
-0.098394416 -0.06772042 0.21079749 0.13860975 -0.069914706 0.12446192 -0.18628952 0.021800699
0.4896851 -0.07660943 0.39434978 -0.027197564 0.11214022 0.022103434 0.28249902 -0.3633395
0.011664381 0.20721042 -0.1400772 0.22638236 0.22471333 0.32922637 -0.009679947 -0.016162073
-0.06849496 -0.18578582 0.36667192 0.014822967 -0.30688867 0.29560995 0.08323794 0.19810382
-0.36455646 -0.16842812 0.14578184 0.0652486 -0.002012804 0.41631064 -0.32070106 -0.3434256
0.2086113 -0.5894891 -0.08911352 -0.1000673 -0.4610187 0.086903125 -0.20421326 0.07471309
00000000: 7c6a b2bc a2d1 243e 221e d3be 223a ce3e
00000010: 57ff e23e 6aaa a03d c248 aebe b776 adbd
00000020: 686a 3e3d 4019 3fbd 0c99 93bd 6e5e 9cbe
00000030: 3be5 15bf be35 e8be 7f37 163e 18f6 cbbd
00000040: 6b3c 823e 4992 afbe f368 013e d477 69bd
00000050: 7ddf bbbd f335 a13d f217 9bbc 77d8 ba3e
00000060: 6360 a23e 3d0c c03c b1c6 133d 9a08 8ebe
00000070: 344b 7ebc 8f68 74be e6f8 37be d316 f0bc
00000080: 290e 443e 716f bfbe 8247 19be 5c0a 903e
00000090: c0b4 893d 805d 24be ecfc 87bd 9cdc c4be
000000a0: b3a2 1abf 95f8 87bc aaa8 bbbd 155f 3a3d
000000b0: ca71 25bd d85e 7dbd e342 2dbe ac1f b43e
000000c0: 0d7c 10bf 6d8f f83e 0f31 a6be f2ab c0be
000000d0: 8fea 21be 7bf0 c9be b4f0 623e b22d 7bbe
000000e0: 2193 2abd d996 c13c 319b 51bd 8bca f1be
000000f0: c184 31bc 0510 f23e dfad 1e3f d2c8 3abf
00000100: 79a3 5ebe cab9 653d a109 863e 7588 933d
00000110: 517e 423d de9c cf3c 95b5 3abe 04c2 bebd
00000120: ba1e c43c cafa b43e 27a4 b4bd 2390 51bd
00000130: c3a4 793d 7837 4abe 0a03 c23e f4cb 00bf
00000140: 8fb4 b4be 50df 09bc d917 bf3d 203a 81bc
00000150: 547a 14bd 3d6d 8c3d 6969 8e3e 65be 4e3c
00000160: 047e 0d3e 8663 95bd 31ce a4be a962 84bc
00000170: ab6e 203e 8db8 a6be 9a94 113f 432d aabe
00000180: ed61 ddba 51ba ab3e 1783 353f 07b3 80bb
00000190: 83fd 1c3f 2935 393e af93 e7ba f48d 92bc
000001a0: a850 52bd a04c 32be e494 6dbe a564 893e
000001b0: bdf2 8bbd 5d8b 683d b822 f13c 81c9 0f3e
000001c0: ee5f 40be 717f acbe 9a65 ccbe 1bc2 563d
000001d0: c917 9e3b a712 5f3f c3d5 81be 3e02 673e
000001e0: 6523 07be 74df 47bf 1aee 82be c745 97bb
000001f0: 5416 b1be ce35 8abc 2782 a4be 8af2 26bd
00000200: b258 3bbe 1dae 253e f635 87be a2a8 023f
00000210: 1fc0 483e 9588 98be a555 ffbc 95ef 1fbd
00000220: 0e1c 993e 2be6 5abe e365 d7bd 8530 5fbe
00000230: 543f bc3d c843 11be 9fed 1f3e 336f fc3e
00000240: 6e42 733e 1c62 cabe debb da3e 9c68 7d3d
00000250: 1dfc 48be e392 90bd d446 1d3d ba33 efbc
00000260: 9abd 8b3e 9b62 973e aaab 863d e66d d2be
00000270: 85ce b03d 8ad0 62be a11b 8fbe 79c5 e2bc
00000280: 751b b23e bead e7be e3a1 a0be 2ace 243e
00000290: fd51 2ebe d5fe 44be 6ad6 5cbd 85c1 d43c
000002a0: 222d 67be 18a9 1ebd c7d1 b2be 637d 2ebb
000002b0: 7e20 343d e041 ffbc 1276 97be 76c1 5a3e
000002c0: 9d20 24bf e9df 2c3f 3eb0 a1be cb86 f5bc
000002d0: 533e cebe de6c e2be 3bf5 97bd 6fed 273e
000002e0: 7678 883d 249e 40bd 2ca3 fb3c 5385 35be
000002f0: 9099 d03e 09a1 c43e eaf4 58be ed89 fbbe
00000300: a0f8 593e 84f6 8bbb 6f71 3c3e c8d9 823b
00000310: 4627 00bd 8908 dc3e ecc3 fb3d 9a82 5abe
00000320: 4871 5abd 8cf9 a83e 8fdb 7c3b 9334 053f
00000330: 2f3e cf3e 711d 2fbe 3479 f53c 9945 d3be
00000340: 0383 c9bd 01b1 8abd 4cdb 573e b7ef 0d3e
00000350: 712f 8fbd e4e5 fe3d aec2 3ebe 6197 b23c
00000360: 01b8 fa3e 68e5 9cbd 37e8 c93e 6dcd debc
00000370: c6a9 e53d 4312 b53c b6a3 903e a307 babe
00000380: f61b 3f3c f82e 543e 6670 0fbe c7d0 673e
00000390: 401b 663e 5c90 a83e a498 1ebc 5366 84bc
000003a0: 1647 8cbd a33e 3ebe 6cbc bb3e 08dc 723c
000003b0: 8320 9dbe 305a 973e a778 aa3d badb 4a3e
000003c0: 25a7 babe 6c78 2cbe d647 153e 0fa1 853d
000003d0: 3fe9 03bb ab26 d53e ee32 a4be 7bd5 afbe
000003e0: 339e 553e c2e8 16bf 2681 b6bd 16f0 ccbd
000003f0: a50a ecbe 44fa b13d 481d 51be 2d03 993d

network.4.bias f4 [8]
-1.7306192 -1.2805158 -1.4135131 -1.3786435 -1.7600297 -1.3618349 -1.1901852 -1.2226038
00000000: ee84 ddbf f1e7 a3bf ffed b4bf 6477 b0bf
00000010: a748 e1bf 9b50 aebf fd57 98bf 487e 9cbf

network.0.weight f4 [128, 28]
0.009654561 -0.14660631 0.51372975 0.22972071 0.53691804 -1.1789073 -1.2201511 -0.029828677
-0.019396678 0.49841192 0.15426323 0.6684782 -1.0534194 -1.2118518 -0.21407741 -0.08369403
-0.43687966 -0.031072928 -0.11431781 -1.3732082 -1.2779517 -0.030418774 0.03266553 -0.25106773
-0.26267007 -0.09953148 -1.4214239 -1.3452226 -1.0022582 -0.17615047 0.06552423 0.11521429
-0.04173364 0.29879057 0.45157754 -0.36016846 -0.6191921 -0.52787894 -0.011950036 0.025248284
-0.007967731 0.26235864 -0.08714412 -0.071015045 0.52741665 -0.37596673 -0.1354429 0.34752768
0.46441132 -0.17692928 0.053066105 0.22254077 0.3828276 -0.48753205 0.28522137 0.33667448
0.068699256 0.006614745 -0.3445292 -0.2283997 0.029982997 -0.36769384 -0.8183449 0.028014239
0.08313574 -0.46241307 0.17719139 -0.38396907 -0.27512872 -1.0465294 -0.29508027 -0.22357835
0.2930818 0.02250636 -0.007149702 -0.29904136 -0.8031618 -0.24393618 -0.12532614 -0.13834544
-0.00396232 0.25261742 -0.23048429 -0.7736951 -0.37474248 0.07215113 0.043085925 -0.075053215
-0.6222087 1.138843 0.20209269 -0.030631807 -0.21620266 -0.083708584 -0.037543166 -0.27686742
0.5035423 1.1165501 -0.1931981 0.12534712 -0.7586 0.0621917 -0.20531176 0.25337318
0.90877956 -0.34587726 -0.004438838 -0.45106983 -0.34562784 -0.24264611 1.0504138 0.39486203
-0.18774156 -0.1374972 -0.025450895 0.09981177 -0.1299729 0.1677855 -0.025765076 0.022437671
0.087180056 -0.123199284 -0.08180499 -0.14694746 0.052581012 -0.12401729 -0.14104636 -0.105080225
0.18860525 0.07611185 0.037513364 -0.09373948 0.02228137 0.009203565 -0.02216591 -0.070065044
-0.11930324 -0.014369539 -0.04090353 -0.06374446 -0.0674558 -0.1704614 0.4103548 -0.22737592
-0.6101528 -0.4003319 -0.3763463 0.17010958 0.08089769 -0.21914217 0.047474038 0.030446904
-0.24593896 -0.12805006 -0.16222554 0.041401275 0.11686254 0.08831959 -0.41168937 -0.51304764
0.016473705 -0.17802592 -0.23153764 -0.034454286 0.12003071 -0.2192828 0.10145145 -0.630036
-0.15173347 -0.01344729 -0.16524339 -0.008133738 -0.023001986 0.11618969 -0.011766897 -0.17295055
0.024446905 -0.07968137 -0.15900584 0.047415894 -0.092194155 -0.14409919 -0.21647938 0.037136603
-0.06385789 -0.13433236 0.04972073 -0.21506238 -0.076303 -0.12135394 -0.08981766 0.071655646
-0.17194773 -0.16269022 -0.24879922 -0.18863603 -0.067517124 -0.1889989 -0.111879654 -0.21082838
-0.12621488 0.14960659 -0.10954107 -0.061295982 -0.24407773 0.12102688 -0.1591022 -0.15018576
0.056477644 -0.2783453 -0.025215108 -0.19760923 -0.103540994 0.10466815 -0.063943386 -0.18294263
0.032430723 -0.035443433 -0.18693513 0.05505161 -0.15440387 -0.03468515 -0.2613726 0.06592723
-0.11253698 0.020429228 0.25122884 -0.4295191 -0.27205276 0.44414854 -0.83637995 -0.11880554
-0.16543356 0.09193454 0.06548963 -0.6652786 -0.15277632 -0.31014663 -0.2995531 -0.022961527
-0.13204467 0.36975393 -0.71271294 -0.24898537 -0.06153603 -0.24927902 -0.012118558 -0.44315463
-0.3152642 0.42057478 -0.29072607 -0.24707244 0.2640959 -0.29596817 -0.1539749 -0.68350536
00000000: 2a2e 1e3c f71f 16be cb83 033f e83b 6b3e
00000010: 7673 093f 6fe6 96bf e92d 9cbf 455b f4bc
00000020: c8e5 9ebc d92f ff3e 2ef7 1d3e 6321 2b3f
00000030: 72d6 86bf f61d 9bbf 1c37 5bbe c767 abbd
00000040: b1ae dfbe a78c febc 751f eabd 49c5 afbf
00000050: ec93 a3bf cb30 f9bc 4acc 053d f38b 80be
00000060: b17c 86be 29d7 cbbd 38f1 b5bf 4130 acbf
00000070: ff49 80bf ca60 34be 9131 863d 78f5 eb3d
00000080: e5f0 2abd 14fb 983e 2c35 e73e 0068 b8be
00000090: 6083 1ebf 1323 07bf 15ca 43bc 7dd5 ce3c
000000a0: 168b 02bc df53 863e 9e78 b2bd 5670 91bd
000000b0: c704 073f b67e c0be 8bb1 0abe 26ef b13e
000000c0: 52c7 ed3e f32c 35be d85b 593d bae1 633e
000000d0: fb01 c43e cd9d f9be 8908 923e 9960 ac3e
000000e0: 32b2 8c3d 81c0 d83b 2266 b0be 9ce1 69be
000000f0: e79e f53c 5e42 bcbe 0d7f 51bf 1e7e e53c
00000100: 1243 aa3d 68c1 ecbe a971 353e 9897 c4be
00000110: acdd 8cbe adf4 85bf c314 97be b9f1 64be
00000120: d10e 963e 425f b83c 0c48 eabb f31b 99be
00000130: 039c 4dbf 68ca 79be 7f55 00be 6daa 0dbe
00000140: 59d6 81bb 1257 813e 1304 6cbe e210 46bf
00000150: 3fde bfbe f9c3 933d de7a 303d 80b5 99bd
00000160: 1249 1fbf 9cc5 913f 63f1 4e3e 8eef fabc
00000170: 3b64 5dbe 686f abbd ddc6 19bd 91c1 8dbe
00000180: 26e8 003f 1deb 8e3f b9d5 45be ff5a 003e
00000190: 9c33 42bf b9bc 7e3d 3f3d 52be 21ba 813e
000001a0: c7a5 683f d316 b1be ac73 91bb a0f2 e6be
000001b0: 22f6 b0be 3978 78be f673 863f 5b2b ca3e
000001c0: 533f 40be 11cc 0cbe 657e d0bc 1d6a cc3d
000001d0: 9e17 05be f6cf 2b3e 4811 d3bc 35cf b73c
000001e0: 758b b23d e84f fcbd 6089 a7bd 6579 16be
000001f0: 305f 573d c7fc fdbd 756e 10be 4d34 d7bd
00000200: bc21 413e 88e0 9b3d 9da7 193d 7cfa bfbd
00000210: 6b87 b63c 8dca 163c 4895 b5bc 437e 8fbd
00000220: 4255 f4bd 376e 6bbc 768a 27bd 758c 82bd
00000230: 4426 8abd 6f8d 2ebe 061a d23e 3cd5 68be
00000240: f932 1cbf 4ef8 ccbe 76b0 c0be 3531 2e3e
00000250: b0ad a53d ce66 60be 2374 423d c96b f93c
00000260: 6cd7 7bbe 8e1f 03be 741e 26be 6294 293d
00000270: a155 ef3d e7e0 b43d f3c8 d2be 1757 03bf
00000280: ddf3 863c 6d4c 36be 3418 6dbe f01f 0dbd
00000290: a9d2 f53d ac8b 60be c7c5 cf3d 0a4a 21bf
000002a0: 0560 1bbe 0652 5cbc 9035 29be 5f43 05bc
000002b0: a96e bcbc dcf4 ed3d f1c9 40bc f319 31be
000002c0: e044 c83c fc2f a3bd 6dd2 22be 2b37 423d
000002d0: 4ad0 bcbd bd8e 13be c5ac 5dbe 8d1c 183d
000002e0: edc7 82bd 6c8e 09be f7a7 4b3d 5039 5cbe
000002f0: bf44 9cbd 6a88 f8bd 52f2 b7bd 32c0 923d
00000300: 1113 30be 4498 26be 39c5 7ebe ce29 41be
00000310: 6b46 8abd ed88 41be 2921 e5bd 65e3 57be
00000320: 793e 01be 7832 193e 1257 e0bd 7f11 7bbd
00000330: 83ef 79be f1dc f73d b0eb 22be 4cca 19be
00000340: 1a55 673d 4683 8ebe ea8f cebc 135a 4abe
00000350: 4d0d d4bd 415c d63d c0f4 82bd 5055 3bbe
00000360: 14d6 043d 222d 11bd ec6b 3fbe cc7d 613d
00000370: 0c1c 1ebe 0412 0ebd a1d2 85be db04 873d
00000380: ca79 e6bd 325b a73c 11a1 803e ede9 dbbe
00000390: 804a 8bbe 7067 e33e ff1c 56bf 5250 f3bd
000003a0: 6a67 29be 2d48 bc3d 6d1f 863d b34f 2abf
000003b0: 6571 1cbe 8acb 9ebe 065f 99be d019 bcbc
000003c0: b836 07be 6350 bd3e 5b74 36bf 05f6 7ebe
000003d0: 340d 7cbd 0043 7fbe eb8c 46bc 2ae5 e2be
000003e0: 4f6a a1be 9455 d73e 0cda 94be 8f00 7dbe
000003f0: 9437 873e 2489 97be 99ab 1dbe 35fa 2ebf

network.0.bias f4 [128]
-1.2757412 -0.12496311 -0.7067931 0.2548038 -0.12421601 -0.47122434 0.6464623 -0.18235824
-0.108522736 0.29976216 -0.14107649 0.7019474 2.8663335 -0.093008935 2.8690429 -1.2447481
-0.002977101 -0.8336496 0.007975197 -0.12660457 0.6081471 -0.9003567 -0.1496339 0.12216862
1.1254851 -0.22549404 -0.42755684 0.9549619 2.7835886 1.3333708 -1.259798 -0.059358176
1.2182517 1.2166488 1.3438917 -1.3896048 -0.0030507133 -0.036230322 -0.072550856 -0.0993741
-0.024181118 -0.4001341 -1.4615015 -0.5022984 -0.6159571 -0.07416542 0.0046201516 1.1153309
-0.9860653 -1.3348917 2.4164603 -0.23136617 0.05538087 1.0372305 2.6734848 1.513584
1.594032 -1.0793409 2.9046655 -0.24208993 -1.1812546 -0.8706995 -0.2781617 2.3798478
-0.61032456 -0.0024837973 1.266417 -0.34446862 -1.583031 -0.0844735 0.6224805 -0.45939732
2.2245648 2.5510893 -0.24969651 -0.055254456 -0.21011128 -0.07287601 3.3212836 0.2708496
1.08823 -0.14456427 -0.3018659 -0.42605373 -0.20922905 -0.0349664 -1.0871408 1.1903191
0.81935346 -0.38169715 0.7230788 -0.6402956 -0.22516657 -0.041122377 -0.084964454 -0.17151824
2.1093607 -0.042786226 -0.79616 -1.1929815 0.909128 -0.34854314 1.298319 -0.4373911
-1.559568 -0.4609701 -0.085101955 2.3315809 -0.004956644 -1.0011283 -0.35496694 -0.11588499
-1.5225141 0.6975305 -0.4051513 -0.30155247 -0.51277953 -0.18884851 -1.2513502 -0.00062938087
-0.34528673 -0.37504366 -0.12986907 0.19615038 0.81677806 -0.10277791 -1.390671 -0.032926936
00000000: 7d4b a3bf a9ec ffbd 65f0 34bf a575 823e
00000010: f764 febd 5144 f1be 8e7e 253f 1ebc 3abe
00000020: 2b41 debd 6d7a 993e 5b76 10be d3b2 333f
00000030: 0272 3740 787b bebd 669e 3740 e853 9fbf
00000040: 771b 43bb 0f6a 55bf 67aa 023c a1a4 01be
00000050: 87af 1b3f c77d 66bf a139 19be 8b33 fa3d
00000060: e50f 903f e9e7 66be bbe8 dabe 6278 743f
00000070: 5126 3240 e5ab aa3f 1041 a1bf 8f21 73bd
00000080: acef 9b3f 26bb 9b3f a504 ac3f 92de b1bf
00000090: 7aee 47bb 3f66 14bd 8b95 94bd a684 cbbd
000000a0: 7b17 c6bc 60de ccbe 7b12 bbbf a196 00bf
000000b0: 5daf 1dbf 0ae4 97bd a464 973b 2ac3 8e3f
000000c0: c76e 7cbf bbdd aabf 49a7 1a40 41eb 6cbe
000000d0: 0dd7 623d f8c3 843f 601a 2b40 1fbd c13f
000000e0: 3e09 cc3f d827 8abf 0ae6 3940 6ce6 77be
000000f0: 5a33 97bf 2ae6 5ebf 366b 8ebe 6d4f 1840
00000100: 3b3e 1cbf 34c7 22bb f419 a23f 315e b0be
00000110: c3a0 cabf 7100 adbd e25a 1f3f 2036 ebbe
00000120: 455f 0e40 0c45 2340 71b0 7fbe 7f52 62bd
00000130: 6927 57be 0440 95bd e98f 5440 ccac 8a3e
00000140: 1f4b 8b3f a808 14be 2b8e 9abe b723 dabe
00000150: 2440 56be ee38 0fbd 6e27 8bbf 605c 983f
00000160: 26c1 513f cf6d c3be b11b 393f 6aea 23bf
00000170: 1192 66be f06f 28bd d801 aebd 7aa2 2fbe
00000180: c4ff 0640 9c40 2fbd 24d1 4bbf 9eb3 98bf
00000190: 9dbc 683f 3f74 b2be 512f a63f baf1 dfbe
000001a0: ed9f c7bf 4604 ecbe ef49 aebd 9f38 1540
000001b0: 586b a2bb f924 80bf 3abe b5be 1c55 edbd
000001c0: bee1 c2bf 5c91 323f fe6f cfbe 1665 9abe
000001d0: 8545 03bf 8161 41be 3e2c a0bf 09fd 24ba
000001e0: 6cc9 b0be b905 c0be 66fc 04be a5db 483e
000001f0: 5e18 513f 3a7d d2bd 8201 b2bf 65de 06bd

network.2.weight f4 [128, 128]
-1.7629161 -0.12513657 -0.2400233 -0.1479907 -0.067963794 -0.22419837 -0.9357846 -0.045702364
0.55687517 -0.15154469 0.055866607 -0.8416937 1.4142178 0.42017367 1.4541851 -0.083719715
-0.3327684 -0.46527106 -0.34292582 -0.48282185 -0.78664345 0.29255247 -0.012752043 -0.7227994
0.32475704 -0.27607304 -0.27467778 -0.12521219 1.7044803 -0.09114187 0.10689647 0.052503098
-0.0037996916 0.10654668 0.08739612 -0.2358189 -0.24125262 -0.18331748 -0.108710326 0.17700936
-0.012568163 -0.00034635334 -0.86844397 -0.35723495 0.0067501343 -0.0056654294 0.23453686 -0.06298077
-0.032412276 -0.416073 -0.69032854 0.046815727 -0.6044013 -0.0071042962 0.67133886 0.06509018
0.22119074 -0.10636689 1.2879777 0.23596495 -0.5842659 -0.17708875 0.20090017 1.1264504
-0.8935949 -0.5673195 -0.14992891 -1.2781546 0.1892554 0.03401383 -1.0649794 0.04689819
0.5872144 1.1059617 -0.19887778 -0.002123843 -0.0051037697 -0.09791327 1.6525599 0.27551907
-0.774083 -0.34545466 -0.20789818 -0.16014272 -0.031593528 -0.14221513 0.05585787 0.0027895386
-0.53948057 -0.5387956 0.16575241 -0.12380317 0.3057425 0.32651147 -0.07966608 -0.08675347
1.1246442 -0.028989445 0.69427276 -0.62127715 -0.10862397 -0.017610539 -0.068849474 0.8202061
-0.77773935 -0.1682004 -0.012311426 0.6674815 0.13693273 0.009916119 -1.1602132 -0.36799923
-0.7129964 -0.2741016 0.13960278 -1.0121598 0.15656573 0.06424391 -0.64479464 0.5392001
0.5520402 -0.08626801 -1.0937842 -0.51461935 -0.08170238 -0.07348087 -1.1429281 -0.037602354
0.24154244 0.11574054 -0.36950174 0.27030584 0.020931778 -0.00196551 0.6280679 -0.056725316
0.36173564 0.06627501 0.043042228 0.6605728 0.33752966 0.7803248 0.3229418 -0.113599785
0.7593919 0.043884967 -0.3896416 0.45906276 0.6275119 -0.03468402 0.041928038 -0.277154
0.19270688 -0.16454521 0.12878354 -0.22951141 0.70839155 0.07839661 0.15276524 -0.082191296
-0.12534052 0.0066590407 -1.4199742 -0.087595694 0.056359258 0.022895457 0.033843428 -0.034830727
-0.093429856 -0.10761876 0.03997576 0.28470004 -0.8810856 0.1349139 -0.5194183 0.5499075
0.24431485 0.5233699 0.02897031 -0.020787574 -0.058829617 -0.38280213 -0.005166654 -0.23407342
0.38875446 0.120751284 0.33162057 -0.46183527 0.10198739 -0.4265684 -0.043064915 -0.05824326
0.08237144 -0.19084857 -0.08789622 -1.168034 0.22677167 0.04724154 0.41451898 -0.2361369
0.52037203 0.7884948 -0.6447523 0.0649039 0.07237026 -0.024020175 0.74379945 0.030738266
-0.7701028 -0.34954202 -0.46818352 -0.06098644 0.008008715 -0.014504189 0.19396764 0.16660045
-0.093519345 0.07735125 0.25919607 -0.34905216 -0.14488891 -0.38177848 -0.0159188 0.048387963
0.31478712 0.03362035 0.09654078 0.20284538 -0.17181131 -0.03526794 0.48968387 0.35427496
-0.024499264 -0.007679026 -0.04986851 0.3707112 0.26710865 0.102024935 -0.09815383 0.18267004
-0.41314742 -0.09503185 -0.21304023 0.4198102 -0.09425985 -0.03307186 0.43765953 0.67920566
0.3771195 0.25881445 0.28383145 -0.019146103 -2.507639 0.17626323 0.27209717 0.06733709
00000000: 3ca7 e1bf cd23 00be abc8 75be e08a 17be
00000010: 9a30 8bbd 4294 65be 948f 6fbf 6732 3bbd
00000020: 5f8f 0e3f 882e 1bbe 62d4 643d 3d79 57bf
00000030: 1705 b53f 0121 d73e bd22 ba3f 3e75 abbd
00000040: 9f60 aabe 0238 eebe f993 afbe 6d34 f7be
00000050: 7761 49bf 70c9 953e f2ed 50bc 6209 39bf
00000060: 8e46 a63e 7259 8dbe 91a2 8cbe a037 00be
00000070: 692c da3f 97a8 babd 89ec da3d 7d0d 573d
00000080: 3f04 79bb 2535 da3d bdfc b23d 827a 71be
00000090: ed0a 77be 94b7 3bbe 85a3 debd f141 353e
000000a0: b2ea 4dbc c296 b5b9 5852 5ebf 80e7 b6be
000000b0: 3b30 dd3b 11a5 b9bb 6e2a 703e 10fc 80bd
000000c0: bcc2 04bd 8507 d5be 5fb9 30bf d9c1 3f3d
000000d0: 0bba 1abf 28cb e8bb dddc 2b3f 004e 853d
000000e0: d37f 623e e2d6 d9bd 74dc a43f cca0 713e
000000f0: 7392 15bf c156 35be c6b8 4d3e 872f 903f
00000100: a3c2 64bf da3b 11bf f786 19be 929a a3bf
00000110: 2bcc 413e 1652 0b3d 3f51 88bf 5118 403d
00000120: af53 163f 2790 8d3f 9ea6 4bbe 2c30 0bbb
00000130: 863d a7bb c186 c8bd 1587 d33f d610 8d3e
00000140: 4e2a 46bf 6fdf b0be 43e3 54be 74fc 23be
00000150: 3768 01bd d8a0 11be 39cb 643d b1d0 363b
00000160: 661b 0abf 82ee 09bf 00bb 293e 848c fdbd
00000170: 488a 9c3e 832c a73e f827 a3bd ceab b1bd
00000180: 57f4 8f3f 467b edbc dcbb 313f 050c 1fbf
00000190: 3e76 debd fa43 90bc f400 8dbd 07f9 513f
000001a0: ed19 47bf ba3c 2cbe ddb5 49bc 11e0 2a3f
000001b0: 1838 0c3e 3877 223c de81 94bf 656a bcbe
000001c0: ef86 36bf 0b57 8cbe 08f4 0e3e 748e 81bf
000001d0: c452 203e 5092 833d 4311 25bf 0509 0a3f
000001e0: 8252 0d3f 48ad b0bd 1f01 8cbf 18be 03bf
000001f0: 9453 a7bd 237d 96bd 784b 92bf ed04 1abd
00000200: e756 773e 6009 ed3d 552f bdbe 8765 8a3e
00000210: 1f79 ab3c c9cf 00bb 0fc9 203f ce58 68bd
00000220: 6a35 b93e 31bb 873d 0c4d 303d 4d1b 293f
00000230: b0d0 ac3e 5ec3 473f a158 a53e 01a7 e8bd
00000240: 8267 423f b9c0 333d 1b7f c7be 460a eb3e
00000250: 9fa4 203f d510 0ebd bcbc 2b3d 21e7 8dbe
00000260: f454 453e 8a7e 28be d5df 033e 0a05 6bbe
00000270: 2659 353f 678e a03d 7e6e 1c3e e953 a8bd
00000280: 4459 00be 1534 da3b b7c1 b5bf 5f65 b3bd
00000290: f7d8 663d 418f bb3c 689f 0a3d aaaa 0ebd
000002a0: 2758 bfbd 3967 dcbd 9fbd 233d 34c4 913e
000002b0: d38e 61bf df26 0a3e 99f8 04bf bdc6 0c3f
000002c0: ac2d 7a3e 92fb 053f 2553 ed3c b44a aabc
000002d0: 53f7 70bd a4fe c3be 094d a9bb f1b0 6fbe
000002e0: d30a c73e 734c f73d 2cca a93e ac75 ecbe
000002f0: c4de d03d 2c67 dabe d664 30bd 7c90 6ebd
00000300: 5cb2 a83d cf6d 43be ef02 b4bd 2382 95bf
00000310: d536 683e 5880 413d d53b d43e dfcd 71be
00000320: 1a37 053f ccda 493f 7d0e 25bf 56ec 843d
00000330: dc36 943d f5c5 c4bc a469 3e3f d1ce fb3c
00000340: 7525 45bf 2cf7 b2be c0b5 efbe ebcc 79bd
00000350: fc36 033c faa2 6dbc 749f 463e 4f99 2a3e
00000360: 1287 bfbd 556a 9e3d 59b5 843e f7b6 b2be
00000370: c25d 14be 7878 c3be 2568 82bc 7532 463d
00000380: c72b a13e 7eb5 093d 2cb7 c53d b3b6 4f3e
00000390: 4eef 2fbe 1e75 10bd d8b7 fa3e 8763 b53e
000003a0: aeb2 c8bc 57a0 fbbb ec42 4cbd dccd bd3e
000003b0: 77c2 883e 73f2 d03d e004 c9bd db0d 3b3e
000003c0: 0f88 d3be 0fa0 c2bd 3827 5abe 5df1 d63e
000003d0: 4f0b c1bd 5c76 07bd e914 e03e 6ce0 2d3f
000003e0: cf15 c13e 5483 843e 5b52 913e 4ad8 9cbc
000003f0: 287d 20c0 597e 343e 5250 8b3e 07e8 893d

network.2.bias f4 [128]
0.9652193 -1.3069761 0.92798036 -0.76169103 -0.646849 1.1610924 0.6090887 -0.104004875
0.8403117 1.0525937 -0.09364771 1.998248 -0.7322111 0.88566864 -0.5480165 0.6947173
-0.97358304 1.3955696 -0.25394723 -0.022923872 1.1477829 1.2873908 -0.10102646 -0.30794188
-0.5827803 -0.1498419 0.020999761 0.9945861 -0.016201517 1.0475605 0.7785933 -0.101204
-0.39776966 1.6926217 0.38044214 -0.9472421 1.215547 1.3399688 -0.13644336 -0.72832274
2.0007362 0.7356829 0.5925895 -0.07032445 0.059150446 -0.037631646 0.839108 0.3771965
1.6928769 -0.51019096 0.48914573 1.3451116 0.84835744 1.1164205 -0.6113597 -0.82491815
-0.10802807 -0.064234585 -0.0642794 0.34324458 -0.68188757 -0.17203513 0.6506689 1.1250429
-0.5102026 -0.015004245 -0.9769775 -0.08281119 -0.67743266 -0.3754584 -0.38300705 1.2360805
-0.004566868 0.7670223 -0.09495009 -0.6490347 -0.4970092 0.44234392 1.1339546 2.0682833
1.2886324 -0.0055734 -1.2745664 0.90871304 1.0651572 -0.19983801 1.3993486 0.019886317
-0.62493163 -0.07221324 -1.0796142 -0.09819545 -1.2180313 1.5855088 -1.2124017 0.6193207
0.025145454 -0.10227776 -0.7991525 -0.7017431 -0.5862423 -0.6524314 -0.09965763 -0.13369413
-0.112343065 0.604112 0.31874406 0.3787977 -0.54704267 0.59560055 -0.09218614 -1.3396963
0.901915 1.1458813 1.1411756 -0.079079196 -0.109061055 -1.2446613 1.8074464 0.23444621
-0.2654094 2.4825416 0.6224329 -0.08427622 1.9249887 -0.05492009 0.93101364 0.002030633
00000000: 9d18 773f fe4a a7bf 1f90 6d3f 2ffe 42bf
00000010: e597 25bf ad9e 943f 3ded 1b3f 8200 d5bd
00000020: ab1e 573f 64bb 863f 5fca bfbd 97c6 ff3f
00000030: 3072 3bbf 2ebb 623f cf4a 0cbf fed8 313f
00000040: bd3c 79bf 06a2 b23f 5f05 82be d8ca bbbc
00000050: 8dea 923f 39c9 a43f f6e6 cebd 8faa 9dbe
00000060: 1731 15bf 2870 19be b107 ac3c 329d 7e3f
00000070: 0bb9 84bc 7616 863f e451 473f 0b44 cfbd
00000080: 77a8 cbbe d4a7 d83f 50c9 c23e 757e 72bf
00000090: 0b97 9b3f 1984 ab3f cfb7 0bbe 5c73 3abf
000000a0: 100c 0040 b755 3c3f f2b3 173f 4406 90bd
000000b0: bd47 723d a423 1abd c8cf 563f e61f c13e
000000c0: 31b0 d83f e09b 02bf 4f71 fa3e 9e2c ac3f
000000d0: f42d 593f dee6 8e3f 1282 1cbf d62d 53bf
000000e0: d23d ddbd 6c8d 83bd eba4 83bd c1bd af3e
000000f0: 2f90 2ebf fa29 30be 3d92 263f 6801 903f
00000100: a39c 02bf 5dd4 75bc 331b 7abf ea98 a9bd
00000110: 3a6c 2dbf 153c c0be 8019 c4be e337 9e3f
00000120: aaa5 95bb 935b 443f 3175 c2bd 2327 26bf
00000130: fd77 febe e77a e23e 6d25 913f c15e 0440
00000140: e8f1 a43f 11a1 b6bb fe24 a3bf 6ba1 683f
00000150: 1257 883f 56a2 4cbe db1d b33f a1e8 a23c
00000160: 85fb 1fbf 89e4 93bd cc30 8abf b21a c9bd
00000170: 73e8 9bbf f4f1 ca3f fb2f 9bbf cd8b 1e3f
00000180: d7fd cd3c 0177 d1bd 4295 4cbf 70a5 33bf
00000190: fa13 16bf bf05 27bf 4d19 ccbd 1de7 08be
000001a0: 1f14 e6bd 16a7 1a3f 6c32 a33e c6f1 c13e
000001b0: fd0a 0cbf 4779 183f 16cc bcbd 2b7b abbf
000001c0: e7e3 663f 3dac 923f 0b12 923f 46f4 a1bd
000001d0: 675b dfbd 1051 9fbf 675a e73f ab12 703e
000001e0: bee3 87be f6e1 1e40 c357 1f3f 0399 acbd
000001f0: 0866 f63f e3f3 60bd e956 6e3f 5e14 053b

network.4.weight f4 [8, 128]
-0.021779291 0.16095594 -0.41233927 0.40278727 0.44335434 0.07845004 -0.34039885 -0.08469909
0.046488196 -0.04665494 -0.07206926 -0.30540794 -0.585529 -0.45353502 0.14669608 -0.09959048
0.2543672 -0.34291294 0.12637691 -0.056999043 -0.091734864 0.07871618 -0.018932316 0.36493275
0.31714162 0.023443336 0.03607816 -0.27740937 -0.0155208595 -0.23868011 -0.17966041 -0.029307758
0.19146027 -0.3738971 -0.14968684 0.28132904 0.067239285 -0.16051292 -0.06640038 -0.38449562
-0.6040451 -0.016598025 -0.091630295 0.045500834 -0.04039172 -0.06185803 -0.16920047 0.35180414
-0.56439286 0.48546925 -0.32459304 -0.37631184 -0.15812133 -0.39441285 0.22162133 -0.2452915
-0.04164422 0.0236315 -0.051173393 -0.4722484 -0.010834874 0.47277847 0.61984056 -0.7296268
-0.21742047 0.056085385 0.2617922 0.072037615 0.047483746 0.025343355 -0.1823333 -0.09314349
0.023940433 0.35347587 -0.08820372 -0.05116285 0.060948145 -0.19747722 0.37892944 -0.5031121
-0.35294005 -0.008415058 0.093307205 -0.015774786 -0.036249474 0.06856773 0.27814797 0.012618636
0.13817602 -0.07294373 -0.32188562 -0.016160326 0.15667216 -0.32562676 0.56867373 -0.33237657
-0.0016890146 0.33540586 0.7090315 -0.0039275917 0.6132433 0.18086685 -0.0017667915 -0.017889954
-0.05134645 -0.17412043 -0.23201329 0.26834598 -0.06833408 0.056773532 0.0294355 0.14041711
-0.18786594 -0.3369098 -0.39921266 0.052431207 0.0048246128 0.87137836 -0.253584 0.22559449
-0.13197096 -0.7807534 -0.25572282 -0.0046164724 -0.34587348 -0.01687136 -0.32130548 -0.040758647
-0.18295553 0.161797 -0.26408356 0.51038563 0.19604538 -0.29791704 -0.031168768 -0.039046843
0.29904217 -0.21376865 -0.1051748 -0.21795852 0.091917664 -0.14186013 0.15617989 0.49303588
0.2375581 -0.39527977 0.42721456 0.06186734 -0.19627424 -0.070592664 0.038397625 -0.02919947
0.27293092 0.29567418 0.06575711 -0.4109947 0.086331405 -0.22149864 -0.27950767 -0.027682053
0.34786573 -0.45249742 -0.3137351 0.1609427 -0.17023464 -0.19237836 -0.05391542 0.025971184
-0.2257581 -0.03873548 -0.34925672 -0.002662503 0.0439763 -0.031159341 -0.29582268 0.21362862
-0.64112264 0.6752916 -0.31579775 -0.0299715 -0.40281925 -0.44223684 -0.07419821 0.16399167
0.06663601 -0.047025815 0.030717455 -0.1772664 0.4074216 0.3840411 -0.21187177 -0.49128667
0.21286249 -0.0042713303 0.18402646 0.0039932467 -0.031287454 0.42975262 0.122932285 -0.21338883
-0.05333069 0.3300289 0.0038583016 0.52033347 0.4047713 -0.17101075 0.02996502 -0.41264036
-0.098394416 -0.06772042 0.21079749 0.13860975 -0.069914706 0.12446192 -0.18628952 0.021800699
0.4896851 -0.07660943 0.39434978 -0.027197564 0.11214022 0.022103434 0.28249902 -0.3633395
0.011664381 0.20721042 -0.1400772 0.22638236 0.22471333 0.32922637 -0.009679947 -0.016162073
-0.06849496 -0.18578582 0.36667192 0.014822967 -0.30688867 0.29560995 0.08323794 0.19810382
-0.36455646 -0.16842812 0.14578184 0.0652486 -0.002012804 0.41631064 -0.32070106 -0.3434256
0.2086113 -0.5894891 -0.08911352 -0.1000673 -0.4610187 0.086903125 -0.20421326 0.07471309
00000000: 7c6a b2bc a2d1 243e 221e d3be 223a ce3e
00000010: 57ff e23e 6aaa a03d c248 aebe b776 adbd
00000020: 686a 3e3d 4019 3fbd 0c99 93bd 6e5e 9cbe
00000030: 3be5 15bf be35 e8be 7f37 163e 18f6 cbbd
00000040: 6b3c 823e 4992 afbe f368 013e d477 69bd
00000050: 7ddf bbbd f335 a13d f217 9bbc 77d8 ba3e
00000060: 6360 a23e 3d0c c03c b1c6 133d 9a08 8ebe
00000070: 344b 7ebc 8f68 74be e6f8 37be d316 f0bc
00000080: 290e 443e 716f bfbe 8247 19be 5c0a 903e
00000090: c0b4 893d 805d 24be ecfc 87bd 9cdc c4be
000000a0: b3a2 1abf 95f8 87bc aaa8 bbbd 155f 3a3d
000000b0: ca71 25bd d85e 7dbd e342 2dbe ac1f b43e
000000c0: 0d7c 10bf 6d8f f83e 0f31 a6be f2ab c0be
000000d0: 8fea 21be 7bf0 c9be b4f0 623e b22d 7bbe
000000e0: 2193 2abd d996 c13c 319b 51bd 8bca f1be
000000f0: c184 31bc 0510 f23e dfad 1e3f d2c8 3abf
00000100: 79a3 5ebe cab9 653d a109 863e 7588 933d
00000110: 517e 423d de9c cf3c 95b5 3abe 04c2 bebd
00000120: ba1e c43c cafa b43e 27a4 b4bd 2390 51bd
00000130: c3a4 793d 7837 4abe 0a03 c23e f4cb 00bf
00000140: 8fb4 b4be 50df 09bc d917 bf3d 203a 81bc
00000150: 547a 14bd 3d6d 8c3d 6969 8e3e 65be 4e3c
00000160: 047e 0d3e 8663 95bd 31ce a4be a962 84bc
00000170: ab6e 203e 8db8 a6be 9a94 113f 432d aabe
00000180: ed61 ddba 51ba ab3e 1783 353f 07b3 80bb
00000190: 83fd 1c3f 2935 393e af93 e7ba f48d 92bc
000001a0: a850 52bd a04c 32be e494 6dbe a564 893e
000001b0: bdf2 8bbd 5d8b 683d b822 f13c 81c9 0f3e
000001c0: ee5f 40be 717f acbe 9a65 ccbe 1bc2 563d
000001d0: c917 9e3b a712 5f3f c3d5 81be 3e02 673e
000001e0: 6523 07be 74df 47bf 1aee 82be c745 97bb
000001f0: 5416 b1be ce35 8abc 2782 a4be 8af2 26bd
00000200: b258 3bbe 1dae 253e f635 87be a2a8 023f
00000210: 1fc0 483e 9588 98be a555 ffbc 95ef 1fbd
00000220: 0e1c 993e 2be6 5abe e365 d7bd 8530 5fbe
00000230: 543f bc3d c843 11be 9fed 1f3e 336f fc3e
00000240: 6e42 733e 1c62 cabe debb da3e 9c68 7d3d
00000250: 1dfc 48be e392 90bd d446 1d3d ba33 efbc
00000260: 9abd 8b3e 9b62 973e aaab 863d e66d d2be
00000270: 85ce b03d 8ad0 62be a11b 8fbe 79c5 e2bc
00000280: 751b b23e bead e7be e3a1 a0be 2ace 243e
00000290: fd51 2ebe d5fe 44be 6ad6 5cbd 85c1 d43c
000002a0: 222d 67be 18a9 1ebd c7d1 b2be 637d 2ebb
000002b0: 7e20 343d e041 ffbc 1276 97be 76c1 5a3e
000002c0: 9d20 24bf e9df 2c3f 3eb0 a1be cb86 f5bc
000002d0: 533e cebe de6c e2be 3bf5 97bd 6fed 273e
000002e0: 7678 883d 249e 40bd 2ca3 fb3c 5385 35be
000002f0: 9099 d03e 09a1 c43e eaf4 58be ed89 fbbe
00000300: a0f8 593e 84f6 8bbb 6f71 3c3e c8d9 823b
00000310: 4627 00bd 8908 dc3e ecc3 fb3d 9a82 5abe
00000320: 4871 5abd 8cf9 a83e 8fdb 7c3b 9334 053f
00000330: 2f3e cf3e 711d 2fbe 3479 f53c 9945 d3be
00000340: 0383 c9bd 01b1 8abd 4cdb 573e b7ef 0d3e
00000350: 712f 8fbd e4e5 fe3d aec2 3ebe 6197 b23c
00000360: 01b8 fa3e 68e5 9cbd 37e8 c93e 6dcd debc
00000370: c6a9 e53d 4312 b53c b6a3 903e a307 babe
00000380: f61b 3f3c f82e 543e 6670 0fbe c7d0 673e
00000390: 401b 663e 5c90 a83e a498 1ebc 5366 84bc
000003a0: 1647 8cbd a33e 3ebe 6cbc bb3e 08dc 723c
000003b0: 8320 9dbe 305a 973e a778 aa3d badb 4a3e
000003c0: 25a7 babe 6c78 2cbe d647 153e 0fa1 853d
000003d0: 3fe9 03bb ab26 d53e ee32 a4be 7bd5 afbe
000003e0: 339e 553e c2e8 16bf 2681 b6bd 16f0 ccbd
000003f0: a50a ecbe 44fa b13d 481d 51be 2d03 993d

network.4.bias f4 [8]
-1.7306192 -1.2805158 -1.4135131 -1.3786435 -1.7600297 -1.3618349 -1.1901852 -1.2226038
00000000: ee84 ddbf f1e7 a3bf ffed b4bf 6477 b0bf
00000010: a748 e1bf 9b50 aebf fd57 98bf 487e 9cbf
